2022-10-26_mymodel8_epoch30.pth (torch, 412067 bytes, 21 tensors)

module.inc.conv.conv.0.bias f4 [32]
0	0xbda8471a	-0.082166865
1	0xbce44589	-0.027865188
2	0x3d9b0666	0.0756958
3	0xbbc29389	-0.0059379977
4	0xbe8a732d	-0.27040997
5	0xbb59f9f2	-0.0033260551
6	0xbd30367e	-0.043020718
7	0xbe2bafee	-0.1676633
8	0xbb16a5f7	-0.0022987106
9	0xbdef8ae9	-0.11696417
10	0xbd3a3fce	-0.045471005
11	0xbc743107	-0.014904267
12	0xbcb3c566	-0.021944713
13	0xbc5ba5bf	-0.013406216
14	0xbd3551c0	-0.044267416
15	0x3d3edd8d	0.046598006
16	0x3c33151d	0.010930327
17	0xbe002de5	-0.12517507
18	0xbaaeac47	-0.0013326489
19	0xbc5eaa24	-0.013590369
20	0x3d641cde	0.055691592
21	0x3d183a9e	0.037165277
22	0xbcf3dfab	-0.02976974
23	0x3ab5f67d	0.0013882663
24	0xbd0656fb	-0.032797795
25	0x3cfdd7a7	0.03098662
26	0xbc31b1b6	-0.010845592
27	0xbc468e48	-0.012118883
28	0xbda5e081	-0.08099461
29	0x3d4086be	0.0470035
30	0xbf188f8c	-0.59594035
31	0xbd4a3b93	-0.04937322

module.inc.conv.conv.0.weight_g f4 [32, 1, 1, 1]
0	0x3f399138	0.7248721
1	0x3f8756c6	1.0573356
2	0x3fa675e7	1.3004731
3	0x40446a4c	3.0689878
4	0x40016a72	2.022122
5	0x4021d141	2.5283968
6	0x3ff4e11d	1.9131199
7	0x405082a2	3.2579732
8	0x3fa5ca60	1.2952385
9	0x4065a9e5	3.5884945
10	0x3f8bb11b	1.0913423
11	0x401716fb	2.3607776
12	0x401ea0be	2.478561
13	0x40636fcf	3.5536993
14	0x3fa35162	1.2759211
15	0x3ffcc3ee	1.9747293
16	0x3ff203a3	1.890736
17	0x403317b8	2.7983227
18	0x4002fe67	2.0467775
19	0x3fb75906	1.4324043
20	0x3fa7e8c4	1.311791
21	0x40402747	3.0023973
22	0x400df654	2.2181597
23	0x3fd86506	1.690583
24	0x3f1f0b26	0.62126386
25	0x404aa6d6	3.1664329
26	0x3fa976f2	1.3239424
27	0x4002bcdb	2.0427768
28	0x4027663f	2.6156156
29	0x3f3ee2be	0.7456473
30	0x3f42a0bc	0.7602651
31	0x3fd90543	1.6954731

module.inc.conv.conv.0.weight_v f4 [32, 1, 3, 3]
0	0x3de3063f	0.11085176
1	0x3e9c8695	0.30571428
2	0x3deed8a0	0.11662412
3	0x3e1a7a8d	0.15085812
4	0x3f40d741	0.7532845
5	0x3e130ef3	0.14361171
6	0xbca927b9	-0.020648824
7	0x3efd6d41	0.49497417
8	0x3dcb9ebb	0.09942385
9	0xbd9fdbc2	-0.07805587
10	0xbf5fd931	-0.8744078
11	0xbf55c724	-0.8350699
12	0x3e8f3566	0.27970427
13	0x3dbda4db	0.09259959
14	0x3d9a2ec5	0.07528452
15	0xbe1f9c27	-0.15586911
16	0xbeaa666c	-0.33281267
17	0x3df10469	0.11768419
18	0x3e0cfb20	0.13767672
19	0x3e162dbe	0.14665887
20	0x3d22a8e4	0.039711848
21	0x3e4b3e2f	0.1984794
22	0x3e9602bc	0.2929896
23	0x3d274e19	0.040845964
24	0xbf7e403d	-0.9931677
25	0xbf727ba1	-0.9471989
26	0x3d23448a	0.039860286
27	0xbb8a7de1	-0.0042264317
28	0x3b48a752	0.0030617309
29	0x3b2f6145	0.0026760858
30	0x3f7829ab	0.9693858
31	0xbf6e46dd	-0.9307688
32	0xbce1e059	-0.027572798
33	0x3bd58f83	0.006517352
34	0xba655cd6	-0.00087494904
35	0xbacb2909	-0.00154999
36	0x3abaa7d6	0.0014240693
37	0x3e91b313	0.28456935
38	0x3bb75e39	0.005595949
39	0x3e4143a5	0.1887346
40	0xbfaaaec1	-1.3334581
41	0x3e6bfca7	0.23045598
42	0xbbde64bf	-0.006786912
43	0x3e86f9ef	0.2636256
44	0x3b24dd2d	0.0025156245
45	0x3d3c9f06	0.046050094
46	0x3cf78ff6	0.030220013
47	0x3be87893	0.0070944517
48	0xc02c6e4b	-2.6942317
49	0x3e03e456	0.12880072
50	0xbfb650f1	-1.4243451
51	0x3d075459	0.033039425
52	0xbb14251c	-0.0022605127
53	0x3aeb1a1b	0.0017936857
54	0xbf1d3fef	-0.6142568
55	0xbf842f9f	-1.0327033
56	0xbf39c1d0	-0.7256136
57	0xbfe893ea	-1.817014
58	0x3e1c7683	0.15279584
59	0x3d055d5e	0.032559745
60	0x3ca4fea5	0.020140955
61	0x3db50d0a	0.08840378
62	0x3c2b6bdc	0.010462727
63	0xba21d158	-0.0006172857
64	0xbfeeed82	-1.8666232
65	0xbbb566ca	-0.005535935
66	0xbb048605	-0.0020221483
67	0xbf97fd1f	-1.1874121
68	0xbc159a62	-0.009131046
69	0xbba0e615	-0.0049102404
70	0xbc76ff69	-0.015075543
71	0xbabb2881	-0.0014279039
72	0x3ade6381	0.001696691
73	0x3c9ce02b	0.01914986
74	0x3f83df2b	1.030248
75	0xbea1fed7	-0.3163974
76	0x3cabfe48	0.020995274
77	0x3b7b6cf6	0.0038364506
78	0xbf2d4d88	-0.6769643
79	0xbe09daab	-0.13462321
80	0x3c1938c1	0.00935191
81	0xbb437c60	-0.0029828772
82	0xbb1e218e	-0.0024128887
83	0xbbb2694c	-0.0054446813
84	0xbad30387	-0.0016099074
85	0x3e2929f4	0.1651991
86	0x3ced6f7a	0.02898382
87	0xbbc0610a	-0.005870943
88	0xc05edd75	-3.4822667
89	0xbbd314b8	-0.006441679
90	0xbf09d986	-0.5384754
91	0xbf1d9eb7	-0.61570305
92	0xbc344db5	-0.011004855
93	0xbec137f4	-0.37738
94	0xbe9162ac	-0.28395593
95	0x3e47c233	0.19507675
96	0xbc39d290	-0.011341706
97	0x3e704eff	0.23467635
98	0x3efdd7d5	0.4957873
99	0xb9dd78f9	-0.00042242536
100	0x3ebbbc2a	0.36666995
101	0xbc503a4b	-0.012709211
102	0x3e0200a0	0.12695551
103	0x3f427ec6	0.7597469
104	0xbcc267b0	-0.023731083
105	0xbda54195	-0.080691494
106	0xbf925962	-1.1433527
107	0xbabad3ad	-0.0014253758
108	0xc004c167	-2.0743043
109	0xbea3f3e2	-0.32022005
110	0x3d127ace	0.035761647
111	0x3d7915b6	0.06081172
112	0x3daec738	0.08534092
113	0x3c8c25e9	0.01710792
114	0x3c64442b	0.013932268
115	0xbf7b7a01	-0.9823304
116	0xbdff42e7	-0.124639325
117	0xbb96b6cb	-0.0045994273
118	0x3b0ddc7a	0.0021646307
119	0xbae4ef7e	-0.0017466394
120	0x3a4afd5f	0.0007743444
121	0xbf67c893	-0.90540427
122	0xbbff3c04	-0.007789137
123	0x39f40414	0.00046542345
124	0x3f63e07d	0.89014417
125	0x3c1c647a	0.00954544
126	0x3b91c503	0.0044485345
127	0xbfa8e955	-1.3196207
128	0xbf06b6fa	-0.5262295
129	0x3d271b2b	0.040797394
130	0x3e198f8c	0.14996165
131	0xbedf0da3	-0.43565091
132	0x3d1a17f2	0.037620492
133	0xbe1be792	-0.15225056
134	0xbd8fb486	-0.07016854
135	0xbfdf6d21	-1.7455178
136	0x3df4c3ad	0.11951385
137	0x3ca48ce6	0.020086717
138	0x3c03f390	0.008053675
139	0x3db60415	0.08887497
140	0x3cdfdb14	0.027326144
141	0x3d604a87	0.054758575
142	0xbdbdd65b	-0.09269401
143	0x3b030c0e	0.0019996199
144	0x3cd2542b	0.0256749
145	0x3fc6403c	1.5488353
146	0x3b936d72	0.004499131
147	0xbe8b0828	-0.2715466
148	0x3d5735a5	0.052541394
149	0x3c1711a9	0.009220519
150	0xbf23af74	-0.63939595
151	0xbeedff99	-0.46484068
152	0x3c862111	0.01637319
153	0x3b01d28e	0.0019809338
154	0x3d741226	0.05958762
155	0xc00b6a00	-2.1783447
156	0x3cf527ad	0.029926145
157	0x3e8c8756	0.27447003
158	0xbc874611	-0.016512902
159	0xbd0dfeef	-0.03466695
160	0xbcb2c119	-0.021820592
161	0xbb0f8819	-0.002190119
162	0xbbd6a9e7	-0.0065510157
163	0xbf40699b	-0.7516114
164	0xbeee196a	-0.46503764
165	0x3f8a912c	1.0825553
166	0x3e2e877d	0.17043872
167	0xbd814d39	-0.06313557
168	0x3be4b8b4	0.006980026
169	0x3a1948f2	0.00058473565
170	0x3b2afb78	0.0026089828
171	0xbfcfa495	-1.6222101
172	0xbea84be0	-0.32870388
173	0xbe80c313	-0.2514883
174	0xbe3f6e09	-0.18694319
175	0xbbc62848	-0.0060472824
176	0x3e82df83	0.2556115
177	0x3ce5b5e6	0.028040837
178	0x3d94db19	0.07268352
179	0x3c2662b7	0.010155371
180	0xc01680db	-2.3516147
181	0x3d0db536	0.034596644
182	0xbe6cb5eb	-0.23116271
183	0x3d951bc4	0.072806865
184	0xb90e04b2	-0.00013543924
185	0xbe23ee55	-0.16008885
186	0xbeb026ad	-0.34404507
187	0xbc8c6c1b	-0.017141392
188	0x3db05822	0.0861056
189	0xbe905333	-0.28188476
190	0xbc07b704	-0.00828338
191	0x39753a64	0.00023386773
192	0xbebb32ab	-0.36562094
193	0xbee0e07a	-0.43921262
194	0x3fd538a0	1.6657906
195	0x3aa33f69	0.0012454811
196	0x3b7d513f	0.0038653163
197	0x3c4568c9	0.0120489085
198	0x3c6fe337	0.014641575
199	0xc0019fb1	-2.0253718
200	0x3cf9a9f2	0.030476544
201	0xba837cc2	-0.0010031688
202	0xbb51826d	-0.003196861
203	0xbb1cd6d8	-0.0023931768
204	0xbf9add55	-1.2098795
205	0xbbfdc03b	-0.007743863
206	0xbf8bb8e3	-1.0915798
207	0xbf4e5ae3	-0.8060743
208	0x3e27005a	0.16308728
209	0x3df70140	0.12060785
210	0xbf862702	-1.0480654
211	0x3e200070	0.15625167
212	0x3d4a1d86	0.049344562
213	0x3bfc1f99	0.0076941964
214	0x3cfcf739	0.030879604
215	0xbf85971e	-1.0436742
216	0x3e108cf4	0.1411627
217	0xbf02d357	-0.5110373
218	0xbea4044b	-0.32034525
219	0xbd201ae7	-0.039088156
220	0x3e1d4939	0.15359963
221	0x3f1602de	0.58598125
222	0xbc010bd1	-0.007876352
223	0xbeb1658d	-0.3464779
224	0xbe8c7c79	-0.27438715
225	0x3c7e1a19	0.015509152
226	0xc02842bd	-2.6290734
227	0x3cbeeec1	0.023307206
228	0x3b88ea81	0.0041783457
229	0xbf392d36	-0.7233461
230	0x3ab0e016	0.0013494517
231	0x3ca44c5a	0.020055939
232	0xbfd873d3	-1.6910347
233	0x3b5dcb63	0.0033843152
234	0x3d11fab4	0.03563948
235	0x3d899e55	0.067196526
236	0x3dfdc934	0.12391892
237	0xbf66a9ff	-0.90103143
238	0x3d66b64b	0.056326192
239	0x3f248fd8	0.6428199
240	0xbe9d6d25	-0.30747333
241	0xbd97dda9	-0.07415325
242	0x3d36c52a	0.044621624
243	0xbe11be04	-0.14232641
244	0x3cec649c	0.028856568
245	0xbea1eada	-0.3162449
246	0xbe0146d4	-0.12624675
247	0x3e91fd73	0.2851368
248	0x3ca4d2ca	0.020120043
249	0xbf6f85fb	-0.9356381
250	0xbfdffbd3	-1.7498726
251	0x3d910f14	0.07082954
252	0x3e9fd731	0.31218866
253	0x3e29cd4b	0.1658222
254	0xbc7bb2b9	-0.015362435
255	0x3e0b5be1	0.13609268

module.inc.conv.conv.2.bias f4 [32]
0	0x3e78b2a8	0.24286902
1	0x3e17b708	0.14815915
2	0x3c842d33	0.016134834
3	0x3db4351f	0.087991945
4	0x3e99641f	0.299592
5	0xbcd843cd	-0.026399517
6	0x3e7d7f28	0.24755538
7	0x3e210f69	0.15728535
8	0x3e7b6cd3	0.24553232
9	0x3eace2bc	0.33766735
10	0xbd1294a4	-0.035786286
11	0x3ea96d3d	0.33091155
12	0xbd3be09a	-0.045868494
13	0x3dba6c4a	0.09102686
14	0xbd145402	-0.03621293
15	0x3d675956	0.05648168
16	0x3e6e1b24	0.23252541
17	0x3dc2861e	0.09498237
18	0x3e5eccd2	0.2175782
19	0x3db8f5b8	0.09031242
20	0x3e7be4cf	0.24599002
21	0x3e83cf6f	0.25744197
22	0x3e1da39a	0.1539444
23	0x3df188ce	0.117936715
24	0xbb163f4d	-0.0022925914
25	0x3e5fb91e	0.2184796
26	0x3dd89134	0.1057457
27	0x3e206ec9	0.15667261
28	0xbe338bfb	-0.17533867
29	0x3d796582	0.06088782
30	0x3e5c71e1	0.21527816
31	0x3e2e660a	0.17031112

module.inc.conv.conv.2.weight_g f4 [32, 1, 1, 1]
0	0x40077a6c	2.116847
1	0x4016ffc1	2.35936
2	0x3f0fdcc5	0.5619624
3	0x3f949cd6	1.1610363
4	0x3f96db6b	1.1785711
5	0x3f07a6e4	0.5298903
6	0x3fcf2c34	1.6185365
7	0x3fd23529	1.6422473
8	0x3fc26f93	1.51903
9	0x3f8b9cc9	1.0907222
10	0x3f515825	0.8177512
11	0x3f57fc93	0.8436977
12	0x3f1154bd	0.56769925
13	0x3fff42c9	1.9942256
14	0x3f08e35d	0.5347193
15	0x3fd85cc6	1.6903312
16	0x40334da2	2.8016133
17	0x3fd0d600	1.6315308
18	0x3fbf6bc7	1.4954766
19	0x3f62aef8	0.8854823
20	0x3fe8896c	1.8166938
21	0x40122359	2.2834074
22	0x3fda7e5b	1.7069811
23	0x3fb25fb4	1.3935456
24	0x3f083f30	0.53221416
25	0x404184f5	3.02374
26	0x3fe471f8	1.784728
27	0x400b6199	2.177832
28	0x3ec34065	0.38135067
29	0x3fe0660c	1.7531142
30	0x4031680f	2.7719762
31	0x402453f7	2.5676248

module.inc.conv.conv.2.weight_v f4 [32, 32, 3, 3]
0	0x3e290f08	0.1650964
1	0xbef873f1	-0.48525956
2	0xbe0d6449	-0.13807787
3	0xbf08f496	-0.5349821
4	0x3d5a5e8d	0.053312827
5	0xbd8f887d	-0.07008455
6	0xbe57b0a4	-0.21063477
7	0xbe3f7e2b	-0.18700473
8	0xbd0e9b65	-0.034816165
9	0xbd6fe2b8	-0.058565825
10	0x3d1917c9	0.0373762
11	0x3c63777d	0.013883469
12	0xbdb2c63c	-0.087292165
13	0x3d9a8f65	0.075468816
14	0x3dc1f5bd	0.09470699
15	0xbd67f4f9	-0.05663011
16	0x3dbe917d	0.093050934
17	0x3c6c985a	0.01444062
18	0x3dc7e985	0.09761337
19	0x3d9e3eef	0.077268474
20	0x3d950d05	0.07277874
21	0x3e398bc9	0.1811973
22	0x3e070bbb	0.13188069
23	0x3d5c7419	0.053821657
24	0x3e71256b	0.2354943
25	0x3e0a7b96	0.13523707
26	0x3be55d72	0.006999665
27	0x3dd68611	0.1047479
28	0xbf096d4d	-0.53682405
29	0xbfbc1fb1	-1.4697171
30	0x3e228497	0.15870892
31	0xbfdf1a01	-1.7429811
32	0xbfd51f72	-1.6650221
33	0x3d8a5626	0.06754713
34	0xbfe9dd3f	-1.8270644
35	0xbf89afdd	-1.0756794
36	0xbf526feb	-0.82202023
37	0xbe3cdb03	-0.18442921
38	0xbf3c0831	-0.7345
39	0xbea49e72	-0.32152134
40	0x3c441b8e	0.01196946
41	0xbed399fa	-0.41328412
42	0xbcfc9395	-0.030832091
43	0xbdbd49f8	-0.09242624
44	0xbe1309ca	-0.14359203
45	0x3e0bf081	0.13665964
46	0x3dcf1720	0.101118326
47	0x3d634087	0.05548146
48	0x3e5852b5	0.211253
49	0x3e51610d	0.20447178
50	0x3de98b78	0.11403555
51	0x3e165463	0.14680628
52	0x3e397439	0.18110742
53	0x3e0559a5	0.13022478
54	0xbd39629f	-0.045260068
55	0xbc6b8037	-0.0143738305
56	0xbdfbde48	-0.12298256
57	0x3dbca8c6	0.092118785
58	0x3cdd9665	0.027049253
59	0xbc1292b2	-0.008946108
60	0xbca7ffba	-0.020507682
61	0x3e600dcc	0.21880263
62	0x3dc95f38	0.09832615
63	0xbe85e846	-0.26153773
64	0xbf2d83c3	-0.6777918
65	0xbece585c	-0.40301788
66	0xbeff1979	-0.49824122
67	0xbea0f5f6	-0.31437653
68	0xbf3287d3	-0.697385
69	0xbf19980e	-0.5999764
70	0xbe7ad436	-0.24495015
71	0xbe34b1d8	-0.17645967
72	0x3df41657	0.119183235
73	0x3e3f8c44	0.18705851
74	0x3d077c18	0.03307733
75	0xbf68f69f	-0.91001314
76	0xbfa28253	-1.2696022
77	0xbd5503cb	-0.05200557
78	0xbcde24d4	-0.02711717
79	0xbf2e3b95	-0.68059665
80	0x3dbaf989	0.09129626
81	0xbed5d305	-0.41762558
82	0x3d6cee29	0.057844315
83	0xbde2a6e2	-0.110669866
84	0xbfee1d37	-1.8602666
85	0xbedbc0b1	-0.4292045
86	0xbe70bcb0	-0.23509479
87	0xbeaa57c6	-0.3327009
88	0x3c4e7e9d	0.012603429
89	0xbdf3c3a8	-0.11902553
90	0xbeae7834	-0.34076083
91	0xbedefb1c	-0.43550956
92	0xbdcc9cf3	-0.09990873
93	0xbf0111dc	-0.50417876
94	0xbf4bd7d0	-0.7962618
95	0xbeb19a4c	-0.34688032
96	0x3d3ea663	0.046545397
97	0xbdaaf1a5	-0.08346871
98	0x3de5c1d0	0.112186074
99	0x3ec6f4b9	0.38858584
100	0xbdcafbbe	-0.09911297
101	0x3e0155a6	0.12630329
102	0xbef5396b	-0.4789537
103	0xbfdeb5f2	-1.7399275
104	0xbfa0a46a	-1.2550175
105	0xbf4e1e9d	-0.8051546
106	0xbf2dbe93	-0.6786892
107	0xbf7e6ac0	-0.9938164
108	0xbd278656	-0.040899597
109	0xbdac2ac0	-0.084065914
110	0xbd31aba3	-0.043376576
111	0x3e51423a	0.2043542
112	0x3d95add6	0.07308547
113	0xbc9a093f	-0.018803237
114	0x3e4317bb	0.19052021
115	0x3da32c80	0.07967472
116	0x3d680807	0.05664828
117	0xbfb80b88	-1.4378519
118	0xbfd0c19b	-1.6309084
119	0xbf8a8917	-1.0823087
120	0xc00de3bb	-2.2170246
121	0xbfcbe14e	-1.5928133
122	0xbf92bb60	-1.1463432
123	0x3db244d5	0.08704535
124	0x3de09ed8	0.10967797
125	0x3c4be215	0.012444039
126	0x3c4b8011	0.01242067
127	0x3e1e3ad3	0.15452127
128	0xbd3ae089	-0.04562429
129	0x3b1f0c4f	0.002426881
130	0x3cc2e46d	0.023790563
131	0x3d4dd4ec	0.050251886
132	0xbd37b2b7	-0.04484817
133	0x3caae41f	0.02086073
134	0xbbc92bf6	-0.0061392738
135	0x3d73703f	0.059433218
136	0xbca3ed1e	-0.020010527
137	0xbe5fb9fc	-0.21848291
138	0x3d9b4fc8	0.075835764
139	0xbddd3b38	-0.10802311
140	0xbe00a185	-0.12561615
141	0x3eac6cc6	0.33676738
142	0xbdab7d17	-0.08373468
143	0xbda75567	-0.08170586
144	0x3e2aaa64	0.16666561
145	0xbcda8614	-0.026675262
146	0x3e999e4e	0.3000359
147	0xbd9d4520	-0.076792
148	0xbfb0c7d6	-1.3810985
149	0xbf3ab0d3	-0.7292606
150	0xbe3936b9	-0.18087281
151	0xbe3b7601	-0.18306734
152	0xbf0f7ff3	-0.5605461
153	0xbf567827	-0.8377709
154	0xbf94a8c4	-1.1614003
155	0xbf8ea4f3	-1.1144089
156	0xbf5bfa3c	-0.859287
157	0xbfea65f2	-1.8312361
158	0xc003a27a	-2.0567918
159	0xbe46db42	-0.19419578
160	0xbf1f1dc4	-0.62154794
161	0xbfa69d4d	-1.3016754
162	0xbd3982c6	-0.04529073
163	0xbf0ac20a	-0.5420233
164	0xbf8f631c	-1.1202121
165	0xbc9f9313	-0.01947931
166	0xc00eeb9b	-2.2331302
167	0xbf9a722a	-1.206609
168	0x3d591b2c	0.05300443
169	0xbfe2f448	-1.7730799
170	0xbf78e552	-0.97224915
171	0xbd939599	-0.07206268
172	0xbe2287bd	-0.15872093
173	0x3d26726e	0.040636472
174	0x3c485cf5	0.012229194
175	0xbdb68e2e	-0.089138374
176	0xbdd73c53	-0.10509553
177	0x3dbe5faa	0.0929559
178	0x3dbd0ec9	0.09231336
179	0x3ced8c65	0.02899761
180	0xbbb5a8b4	-0.0055437926
181	0xbd22374a	-0.03960351
182	0x3cce6e3b	0.025199046
183	0x3d0618b1	0.03273839
184	0x3ddfa2b6	0.109197065
185	0xbc895b7a	-0.016767252
186	0x3db18490	0.086678624
187	0x3e0be5f3	0.13661937
188	0xbd38ec89	-0.045147453
189	0xbf8d3fbb	-1.1035074
190	0xbf0cb1d4	-0.54958844
191	0x3d945b53	0.07243981
192	0xbf106474	-0.5640328
193	0xbf7f3a3a	-0.9969822
194	0xbc403c99	-0.011733198
195	0xbebc43fa	-0.36770612
196	0xbe1b36cb	-0.1515762
197	0xbd1c1f72	-0.038115926
198	0x3dd45401	0.10367585
199	0x3d49ef5c	0.049300537
200	0xbccf0e4f	-0.025275378
201	0x3e5c00e3	0.21484713
202	0x3e275485	0.16340835
203	0x3de9bad6	0.11412589
204	0x3db28065	0.087158956
205	0x3dfb680c	0.12275705
206	0x3d7c01bc	0.06152509
207	0x3ddd41cc	0.108035654
208	0x3ddfcd60	0.10927844
209	0xbda7785e	-0.08177255
210	0x3d48d218	0.049028486
211	0x3da55cfc	0.08074376
212	0xbd25a607	-0.04044154
213	0x3dde05f4	0.10840979
214	0x3daef8eb	0.08543571
215	0xbd61683f	-0.055031057
216	0xbe27346f	-0.16328596
217	0x3c0b246a	0.0084925685
218	0x3e2e4349	0.17017855
219	0xbdb7f6b9	-0.089826055
220	0xbc4253ae	-0.011860771
221	0x3e791a7c	0.24326509
222	0x3d2015cf	0.0390833
223	0x3d08acbc	0.033367857
224	0xbe4311f2	-0.19049814
225	0x3d863273	0.06552591
226	0xbe184caf	-0.14873002
227	0xbd1d8e65	-0.038465876
228	0x3df7367c	0.12070939
229	0x3df465a6	0.119334504
230	0x3da890f4	0.082307726
231	0x3e13c420	0.14430285
232	0x3d63e7e6	0.055641077
233	0x3d35234b	0.04422311
234	0x3d9e1fe8	0.077209294
235	0x3bd80e04	0.0065934677
236	0x3e2fd581	0.17171289
237	0x3e21aadb	0.15787832
238	0xbf7ecba4	-0.9952948
239	0x3d1054a6	0.035236977
240	0x3ebf68c8	0.3738463
241	0xbf5034a5	-0.8133033
242	0x3e0df09d	0.13861318
243	0xbd1e434a	-0.03863839
244	0xbd2e4442	-0.042545564
245	0x3c4a071e	0.012330798
246	0xbdc270ec	-0.094941944
247	0x3ea13ef6	0.31493348
248	0x3e3a3f51	0.18188216
249	0x3e969d03	0.29416665
250	0x3ebaaf06	0.36461657
251	0x3e22fa4e	0.15915796
252	0x3d1a7cbd	0.037716616
253	0xbe0ce7a7	-0.13760243
254	0xbf16175f	-0.5862941
255	0x3e6a7004	0.22894293

module.down1.mpconv.1.conv.0.bias f4 [64]
0	0xbdbd55f2	-0.092449084
1	0x3e6887a4	0.22707993
2	0xbd852e92	-0.06503023
3	0xbd0e9f03	-0.034819614
4	0xbe2753f9	-0.16340627
5	0xbd84fbcb	-0.06493338
6	0xbeaf92c4	-0.3429166
7	0x3ebd2599	0.36942747
8	0xbe9363aa	-0.28786975
9	0xbe0abeed	-0.13549395
10	0xbee944a2	-0.45560175
11	0xbdb041c6	-0.08606295
12	0x3e868bcf	0.2627854
13	0x3e1d4aa9	0.15360512
14	0x3db04ab6	0.08608
15	0x3c3f441e	0.011673955
16	0xbd30077a	-0.04297588
17	0x3e2e768c	0.1703741
18	0xbd4dc707	-0.050238635
19	0xbf28ae4e	-0.6589097
20	0x3e8c0443	0.27347
21	0x3e476661	0.19472648
22	0x3eb9c9f0	0.3628688
23	0xbed791c9	-0.42103413
24	0xbe49241b	-0.1964268
25	0x3ea0ab3b	0.31380638
26	0x3e575862	0.21029809
27	0xbd834678	-0.06409925
28	0x3df8ad06	0.121423766
29	0xc00e8c4f	-2.2273138
30	0xbdbb542c	-0.09146914
31	0x3e438b69	0.1909615
32	0x3e68f7f3	0.22750835
33	0x3eba9934	0.3644501
34	0xbd123526	-0.035695218
35	0xbd761be2	-0.060085185
36	0xbd94b12b	-0.072603546
37	0x3a93e5ce	0.0011283697
38	0xc027e20b	-2.6231716
39	0xbca8a744	-0.020587571
40	0xbe476f71	-0.19476105
41	0x3d5f36cc	0.054495618
42	0xbdfe4b95	-0.1241676
43	0x3d1330c4	0.03593518
44	0xbefa2287	-0.48854467
45	0x3cfd634d	0.03093114
46	0xbecc994f	-0.39960715
47	0x3dfbd207	0.12295919
48	0xbf8ed5c6	-1.1158988
49	0xbe775048	-0.24151719
50	0x3e7f3af3	0.24924831
51	0xbac4e3e9	-0.0015021536
52	0x3dc7411a	0.09729214
53	0x3e60bfb8	0.21948135
54	0xbf0078b0	-0.50184155
55	0x3dcac75c	0.09901306
56	0xbd2a44ff	-0.041569706
57	0x3f1495cf	0.5804109
58	0xbe0aff67	-0.13573991
59	0x3d4666db	0.048437934
60	0x3d82340f	0.06357586
61	0xbfcc5dc0	-1.596611
62	0x3e4f0c65	0.20219572
63	0xbb67a5f3	-0.0035346716

module.down1.mpconv.1.conv.0.weight_g f4 [64, 1, 1, 1]
0	0x3f2905bb	0.6602437
1	0x3fcd04dd	1.6017109
2	0x3f951bb3	1.1649078
3	0x3f99957d	1.1998745
4	0x3e840e64	0.2579223
5	0x3f0a8773	0.5411293
6	0x3fa8da8d	1.3191696
7	0x400d35a0	2.206398
8	0x3fa87aa0	1.3162422
9	0x3fbbb80c	1.4665542
10	0x3f2b82a8	0.6699624
11	0x3f50315e	0.8132533
12	0x3fbd3387	1.478135
13	0x3f86f419	1.0543243
14	0x3fb4471c	1.4084201
15	0x3f53a794	0.8267758
16	0x3f866b1a	1.0501435
17	0x3f9b7e08	1.2147837
18	0x3f8312bf	1.0240096
19	0x3f905baa	1.1277974
20	0x3f799605	0.97494537
21	0x3f84a0c7	1.0361565
22	0x403288ec	2.789607
23	0x3fe2ef12	1.7729208
24	0x3f5c4748	0.86046267
25	0x3fc94cdf	1.5726584
26	0x3f5e1564	0.8675139
27	0x3f5d2108	0.86378527
28	0x3f65a8c1	0.89710623
29	0x3fcdbb5f	1.6072806
30	0x3eeb9cd2	0.46018082
31	0x3f7ce2be	0.9878348
32	0x3f95891e	1.168247
33	0x3faa9b39	1.332862
34	0x3f0c97df	0.54919237
35	0x3eb86daa	0.36021167
36	0x3eebfde7	0.4609215
37	0x3f93c6ba	1.1545022
38	0x3f99eaea	1.2024815
39	0x3efafebc	0.49022472
40	0x3fa4235f	1.2823294
41	0x3fc12e38	1.509223
42	0x3ea08cb8	0.3135736
43	0x3f94197a	1.1570275
44	0x3f853d48	1.0409327
45	0x3f6c25a3	0.9224493
46	0x3f80e292	1.0069144
47	0x3feb92de	1.8404195
48	0x3fe7b0c7	1.8100823
49	0x3fcac587	1.584153
50	0x3f910ac1	1.1331407
51	0x3f1d9fc1	0.6157189
52	0x3f47f41e	0.7810687
53	0x3f8996ec	1.0749183
54	0x3f894bf9	1.072631
55	0x3f2380dd	0.63868505
56	0x3ef3805d	0.4755887
57	0x400a6bc2	2.162827
58	0x3f0b8bed	0.54510385
59	0x3f58ab06	0.8463596
60	0x3f801688	1.0006876
61	0x3fc6cb93	1.5530876
62	0x3fa9f632	1.3278258
63	0x3f0995c2	0.5374414

module.down1.mpconv.1.conv.0.weight_v f4 [64, 32, 3, 3]
0	0x3f1dd48e	0.6165246
1	0x3ed66bdf	0.41879174
2	0x3f33fa78	0.7030406
3	0x3ed3b847	0.4135153
4	0x3df44ab6	0.119283125
5	0x3e7dca0c	0.24784106
6	0x3f12ef10	0.5739603
7	0x3e95150e	0.29117626
8	0x3e17c422	0.14820912
9	0x3bf87659	0.0075824675
10	0xbd283522	-0.041066296
11	0x3cf41932	0.02979717
12	0xbdcffe74	-0.10155955
13	0x3d0c3330	0.034228504
14	0x3d58a24d	0.052889157
15	0xbe478543	-0.19484429
16	0xbe17a12b	-0.14807574
17	0xbdc24a96	-0.094868824
18	0x8d5f2a43	-6.876805e-31
19	0x9efae506	-2.6564501e-20
20	0x8c933f17	-2.2686907e-31
21	0xad3ed21c	-1.0846903e-11
22	0x2ec761dc	9.0668556e-11
23	0x8cd06945	-3.211083e-31
24	0xadc9736e	-2.2902315e-11
25	0xae7ebd33	-5.7920956e-11
26	0x24039044	2.8528295e-17
27	0xbe3213c7	-0.17390357
28	0xbdce3c5e	-0.10070108
29	0xbe556b2a	-0.20841661
30	0xbc8cfb6b	-0.01720973
31	0x3e6ee54d	0.23329659
32	0xbd97178c	-0.07377538
33	0xbe0c34fb	-0.13692085
34	0x3d7a784e	0.061149888
35	0x3dd7e506	0.1054173
36	0x3df1f1bd	0.11813686
37	0x3dffcdc7	0.12490421
38	0x3dd7f7cb	0.1054531
39	0x3e99d4bc	0.30045116
40	0x3e9c76f8	0.30559516
41	0x3eb1166f	0.34587428
42	0x3e78864a	0.24269977
43	0x3e2cb933	0.16867523
44	0x3eb0a708	0.34502435
45	0x802417d6	-3.314629e-39
46	0x91a7ec08	-2.649342e-28
47	0x0026381d	3.509879e-39
48	0x2d848527	1.5065794e-11
49	0x09b20aab	4.2861973e-33
50	0x002de666	4.215249e-39
51	0x0003da3a	3.53791e-40
52	0x801d557e	-2.693898e-39
53	0x827205bd	-1.7780999e-37
54	0x3eed354d	0.46329728
55	0x3eaab112	0.3333822
56	0x3e944e2f	0.289659
57	0x3e2216c8	0.15829003
58	0x3e95c96a	0.2925523
59	0x3e952dda	0.29136544
60	0x3de6983b	0.112595044
61	0x3d95d1bf	0.073153965
62	0x3e5ed073	0.21759205
63	0x3f033664	0.5125487
64	0x3f1d591c	0.61464095
65	0x3e9a39bb	0.3012217
66	0x3f6376fd	0.88853437
67	0x3f1c5367	0.6106476
68	0x3ea7395b	0.32660946
69	0x3f8648ba	1.0490944
70	0x3f22f9db	0.636625
71	0x3f18328b	0.5945212
72	0x3edb5c80	0.4284401
73	0x3eae8632	0.34086758
74	0x3ec39d6e	0.38206047
75	0x3effe112	0.49976403
76	0x3ec8528d	0.3912548
77	0x3ecc9705	0.3995897
78	0x3f01422e	0.5049161
79	0x3ec4c002	0.3842774
80	0x3e9c55b3	0.30534133
81	0x3f2a4b72	0.6652137
82	0x3ebbac1a	0.3665474
83	0x3e861ac8	0.26192307
84	0x3f03eadf	0.5153026
85	0x3e851f47	0.26000425
86	0x3e14aa7b	0.14518158
87	0x3f2d82fa	0.6777798
88	0x3eb68d67	0.35654756
89	0x3d48319b	0.048875432
90	0xbe37ed68	-0.17961657
91	0x3d9f3bbd	0.07775066
92	0x3ec114d9	0.37711218
93	0xbd8cef22	-0.068815485
94	0x3deb3d6b	0.11486324
95	0x3e1e3d12	0.15452984
96	0x3d184efe	0.037184708
97	0xbdb5e5ed	-0.088817455
98	0x3e53be66	0.206781
99	0xbdd9fedf	-0.10644316
100	0xbbdae541	-0.006680161
101	0xbce2ce16	-0.02768616
102	0x3db881b2	0.090091124
103	0x3ddde596	0.10834806
104	0xbca1a001	-0.019729616
105	0xbdb6267c	-0.08894059
106	0xbc309619	-0.010777974
107	0x3d5cccf1	0.053906385
108	0x0240f394	1.4175836e-37
109	0x0608075d	2.5584167e-35
110	0x054d2f91	9.64779e-36
111	0x878b0ebe	-2.092306e-34
112	0x0892e06a	8.839815e-34
113	0x033f8807	5.6286007e-37
114	0x83af6a2d	-1.0309952e-36
115	0x820f7776	-1.0540264e-37
116	0x103f2de9	3.7703476e-29
117	0x3d916a27	0.07100325
118	0x3e808bc5	0.25106636
119	0x3ed8a80b	0.42315707
120	0x3e78c545	0.24294002
121	0x3e832aff	0.2561874
122	0x3e9c507d	0.30530158
123	0x3c5857e6	0.01320455
124	0x3ddffa95	0.109364666
125	0x3dc3a005	0.09552006
126	0x800294d1	-2.37056e-40
127	0x0001978b	1.46199e-40
128	0x801e87dc	-2.803802e-39
129	0x011865ea	2.799111e-38
130	0x0000dfd9	8.0301e-41
131	0x00019838	1.46441e-40
132	0x88a5d54f	-9.980725e-34
133	0x000b234d	1.022854e-39
134	0x8202a067	-9.596925e-38
135	0xbdf96c5d	-0.12178872
136	0xbdd30c3f	-0.1030507
137	0xbe5137eb	-0.20431487
138	0xbd27b1e7	-0.040941145
139	0x3d620fdd	0.05519091
140	0xbdba03a1	-0.090827234
141	0xbe62331c	-0.22089809
142	0xbe153ed3	-0.14574747
143	0xbe4cdf8b	-0.2000715
144	0xbe9d9d42	-0.3078404
145	0xbe304285	-0.17212875
146	0xbecf3dc2	-0.40476805
147	0xbf014424	-0.504946
148	0xbe9168fe	-0.28400415
149	0xbe92d1db	-0.28675732
150	0xbf2cb83a	-0.6746861
151	0xbed236a6	-0.41057318
152	0xbeb86ca3	-0.36020383
153	0x3e1f3ce5	0.15550573
154	0x3df1139e	0.1177132
155	0x3e9649e0	0.29353237
156	0x3ec1b4e0	0.3783331
157	0x3ee74759	0.4517162
158	0x3e96624f	0.29371879
159	0x3e3e115d	0.18561311
160	0x3f134400	0.57525635
161	0x3f051086	0.5197834
162	0xbe292de0	-0.16521406
163	0xbe24e812	-0.16104153
164	0xbcbf7172	-0.023369525
165	0xbdbba8f8	-0.091630876
166	0xbd70ea0c	-0.058816954
167	0x3cd0557e	0.02543139
168	0xbcc80d3d	-0.024420375
169	0xbdf79feb	-0.12091049
170	0xbde9d74b	-0.11418017
171	0x3e39f884	0.18161207
172	0x3de19ed1	0.1101662
173	0x3ecc3470	0.39883757
174	0xbdd54aa6	-0.10414629
175	0xbe4e38c7	-0.20138846
176	0xbd112279	-0.035433266
177	0x3ddb2666	0.10700683
178	0x3d0aba42	0.033869036
179	0x3dc53924	0.09630039
180	0xbd23febb	-0.04003785
181	0x3df0a7fa	0.11750789
182	0x3e57a69e	0.21059653
183	0x3d0afd5a	0.03393302
184	0x3cf4f30f	0.029901056
185	0x3b1fbdb2	0.0024374542
186	0x3d2f0f77	0.042739358
187	0xbd153d47	-0.03643539
188	0xbccb0e45	-0.024787078
189	0x3f158757	0.5840964
190	0x3c80d236	0.015725236
191	0x3eb00742	0.34380537
192	0x3f23b80f	0.63952726
193	0x3e0dbde5	0.1384197
194	0x3f120d73	0.5705177
195	0x3e9fa118	0.31177592
196	0x3e9b261e	0.3030252
197	0x3eeaf5e9	0.4589074
198	0x3dc5ccf4	0.09658232
199	0x3d92bfa9	0.071654625
200	0x3dd4ee0c	0.10396966
201	0x3d833293	0.06406131
202	0x3e808bf6	0.25106782
203	0x3e48e5e2	0.19618943
204	0x3e612feb	0.21990936
205	0x3e0b1ae9	0.13584484
206	0x3e6603fe	0.2246246
207	0xbdeab314	-0.11459938
208	0x3e1084c2	0.14113143
209	0x3e04adbf	0.12956904
210	0xbd4e4f98	-0.050368875
211	0x3db353d8	0.08756226
212	0x3eddb677	0.43303272
213	0xbe621a2c	-0.22080296
214	0xbe01e5ac	-0.12685269
215	0x3e2b763a	0.16744319
216	0x8008ba1c	-8.01447e-40
217	0x00118063	1.60726e-39
218	0x000f8059	1.423575e-39
219	0x8003995f	-3.30526e-40
220	0x8178bcdc	-4.5685906e-38
221	0x8006edfa	-6.36383e-40
222	0x000a9045	9.70109e-40
223	0xaa20fe2f	-1.4299042e-13
224	0x800f04b7	-1.379224e-39
225	0xbf37e756	-0.71837366
226	0xbf124f9a	-0.5715271
227	0xbf159b54	-0.58440137
228	0xbf153330	-0.5828123
229	0xbf0f94e3	-0.5608656
230	0xbf044d66	-0.516806
231	0xbf34f44c	-0.7068527
232	0xbf15b28c	-0.58475566
233	0xbf117ad0	-0.5682802
234	0x3d6cc8b9	0.05780861
235	0x3ca8dfa9	0.020614462
236	0x3e35cbc4	0.17753512
237	0x3cfe1f8d	0.031020904
238	0x3cc29b9b	0.02375584
239	0x3d11cbc0	0.0355947
240	0xbd277630	-0.040884197
241	0xbd5b5c35	-0.053554732
242	0xbda34788	-0.07972628
243	0x3d3942cb	0.045229714
244	0x3dfa8029	0.12231476
245	0x3c7d211e	0.01544979
246	0x3d34a890	0.044106066
247	0x3e21e7e2	0.15811113
248	0x3e44c9ad	0.19217558
249	0x3d753513	0.05986507
250	0x3e375971	0.17905213
251	0x3d86959b	0.06571504
252	0x3c35a89a	0.011087561
253	0xb4bf7d65	-3.566776e-07
254	0xbc454868	-0.012041189
255	0x39990505	0.00029186174

module.down1.mpconv.1.conv.2.bias f4 [64]
0	0xbe00c313	-0.12574415
1	0xbceb6257	-0.028733416
2	0xbc2fbb65	-0.010725831
3	0xbd034e42	-0.032057054
4	0x3db7abb1	0.089682944
5	0xbccc2eb7	-0.02492462
6	0xbe818b71	-0.25301698
7	0x3e160ff2	0.1465452
8	0xbc74331d	-0.0149047645
9	0xbe3e357c	-0.1857509
10	0x3e12d4f3	0.14339046
11	0xbd8fd7f0	-0.07023609
12	0xbbe3d10a	-0.0069524096
13	0x3de06979	0.10957617
14	0xbd50093d	-0.05079006
15	0xbd8c02de	-0.068364844
16	0xbd80bb3d	-0.06285713
17	0xbd68e8db	-0.056862693
18	0x3e3d9ffa	0.18518057
19	0xbbdab09d	-0.006673886
20	0xbea9e89e	-0.33185285
21	0xbc38611a	-0.01125362
22	0xbdd44c28	-0.10366088
23	0x3d4eb90e	0.05046945
24	0xbd8bebac	-0.0683206
25	0xbc400b4c	-0.011721443
26	0x3d76a2c9	0.060213838
27	0xbe09d0ab	-0.13458507
28	0x3e2f8e71	0.17144181
29	0x3dbffb91	0.09374154
30	0xbc28cbc9	-0.010302492
31	0x3db81b3e	0.08989571
32	0x3dd17c46	0.102287814
33	0xbe28ee19	-0.16497077
34	0x3cb0b59a	0.02157097
35	0x3cde35a9	0.027125197
36	0x3cd35a26	0.025799822
37	0x3da067b1	0.078322776
38	0xbde01943	-0.10942318
39	0xbc9b5e54	-0.018965878
40	0xbe5949dd	-0.21219583
41	0x3cf398a6	0.029735874
42	0xbd016c7f	-0.03159761
43	0x3ddaed18	0.10689753
44	0x3da036db	0.07822963
45	0xbd06acb4	-0.032879546
46	0xbd30c0a8	-0.04315248
47	0xbbb222c1	-0.005436272
48	0xbd86a210	-0.0657388
49	0xbe699990	-0.22812486
50	0x3d3bb467	0.045826342
51	0xbe297620	-0.16548967
52	0x3e0c046c	0.13673562
53	0xbd96bf36	-0.07360689
54	0xbd1dbc1a	-0.038509466
55	0x3e4e5671	0.20150162
56	0x3e90ee4f	0.28306815
57	0xbc1aa1db	-0.009438003
58	0xbd98f1ee	-0.074680194
59	0x3e33db01	0.17564012
60	0x3e44e001	0.19226076
61	0xbd1a46b1	-0.037665073
62	0xbd595a27	-0.05306449
63	0x3e68c16a	0.22730032

module.down1.mpconv.1.conv.2.weight_g f4 [64, 1, 1, 1]
0	0x3f92077c	1.1408534
1	0x3f0c7d4e	0.548787
2	0x3f13e176	0.577659
3	0x3f164ac4	0.58707833
4	0x3f8b1058	1.0864363
5	0x3f0c6c45	0.54852706
6	0x3f311a31	0.6918059
7	0x3fbc3768	1.4704409
8	0x3f144d7e	0.57930744
9	0x3e8b4ac9	0.27205494
10	0x3fb1b7af	1.3884181
11	0x3f1bdf54	0.60887647
12	0x3f1a06cd	0.6016663
13	0x3fcdfc19	1.6092559
14	0x3f0d869f	0.5528354
15	0x3f0b31d3	0.543729
16	0x3f8872d3	1.0660042
17	0x3e971266	0.29506224
18	0x3f4cffcd	0.8007782
19	0x3f0f3c87	0.5595173
20	0x3f713306	0.9421848
21	0x3f1d4135	0.61427623
22	0x3f975a5e	1.1824453
23	0x3f83e27a	1.030349
24	0x3f0b322d	0.5437344
25	0x3f69c20b	0.9131171
26	0x3f455d77	0.7709574
27	0x3f974ba3	1.1819957
28	0x3f9fcc47	1.2484215
29	0x3f8e5a5b	1.1121324
30	0x3f1a3841	0.60242087
31	0x3fdc1797	1.7194699
32	0x3fc316cd	1.5241333
33	0x3f78b1d6	0.97146356
34	0x3f0fa1fc	0.56106544
35	0x3f819876	1.0124652
36	0x3f518755	0.81847125
37	0x3f354a4c	0.70816493
38	0x3f67d982	0.90566266
39	0x3f0d2c4c	0.55145717
40	0x3f2dbab4	0.6786301
41	0x3ef49254	0.4776789
42	0x3f0e905b	0.5568902
43	0x3fc1cbbe	1.5140302
44	0x3f424eb2	0.7590133
45	0x3f2813ad	0.6565502
46	0x3f1b1020	0.6057148
47	0x3f5b6033	0.85693663
48	0x3f0d23a5	0.55132514
49	0x3f22705b	0.6345269
50	0x3f761da8	0.96139
51	0x3f8ad4f1	1.0846235
52	0x3fcacef9	1.5844413
53	0x3f9505ba	1.1642373
54	0x3e6d935f	0.23200749
55	0x3fe698c5	1.8015372
56	0x3fcf1de9	1.6181003
57	0x3f0afe1f	0.5429401
58	0x3f037fbb	0.51366776
59	0x3ffee8a4	1.9914746
60	0x3f2e2400	0.6802368
61	0x3f187cb9	0.5956531
62	0x3f0d0339	0.5508304
63	0x3f8906f7	1.070525

module.down1.mpconv.1.conv.2.weight_v f4 [64, 64, 3, 3]
0	0x3e10aa66	0.14127502
1	0x3e0a5069	0.13507237
2	0x3d90d773	0.07072344
3	0x3cb5359a	0.022120286
4	0x3df97b8b	0.12181767
5	0xbdd0fa2d	-0.10203967
6	0x3e97d754	0.2965647
7	0x3e3c6e9a	0.18401566
8	0x3b0139e3	0.001971834
9	0x3eb78af3	0.35848197
10	0x3e4a3385	0.19746216
11	0xbc8b3fd3	-0.016998207
12	0x3e706870	0.2347734
13	0x3e328868	0.17434847
14	0x3d81e3f1	0.063423045
15	0xbdb25388	-0.087073386
16	0xbe5bc958	-0.21463525
17	0xbe0a5973	-0.13510685
18	0x3eb79ce9	0.358619
19	0xbd8215ba	-0.063518
20	0x3d0db46f	0.034595903
21	0x3e59ff42	0.2128878
22	0xbe07f4aa	-0.13276926
23	0xbf1a1b04	-0.6019747
24	0xbed20845	-0.41021934
25	0xbf2a9734	-0.6663697
26	0xbf73e091	-0.95264536
27	0xbecd95a2	-0.40153223
28	0xbc8e81e8	-0.017395929
29	0xbe5a0fdf	-0.21295117
30	0xbee1cfa4	-0.4410373
31	0x3e44769b	0.1918587
32	0xbe608f9e	-0.21929786
33	0xbc2e2868	-0.010629751
34	0xbe2d90dc	-0.1694979
35	0x3f12d46c	0.5735538
36	0x2198be76	1.0350335e-18
37	0x01792a80	4.576457e-38
38	0x223e2c04	2.5773103e-18
39	0x01d07987	7.6581516e-38
40	0x81db52ae	-8.0566534e-38
41	0x019219e0	5.366906e-38
42	0x0320f736	4.730356e-37
43	0x00ac6e5c	1.5835295e-38
44	0x288b2d23	1.5451675e-14
45	0x006ccd5f	9.991907e-39
46	0x0083d802	1.2107939e-38
47	0x80f1a37f	-2.2191006e-38
48	0xaabc3150	-3.3429726e-13
49	0x8109ddfe	-2.5322198e-38
50	0x00308db4	4.458937e-39
51	0x80078111	-6.89149e-40
52	0x808bb575	-1.2830228e-38
53	0xa9567225	-4.761655e-14
54	0xbddc86a9	-0.10767872
55	0x3ca88540	0.020571351
56	0x3dce9388	0.10086733
57	0x3e26fe7a	0.16308013
58	0x3dcbf275	0.099583544
59	0xbd91f867	-0.07127457
60	0xbd165386	-0.036700748
61	0xbe9f5252	-0.31117493
62	0xbf28b513	-0.659013
63	0x3ee1bbc1	0.44088557
64	0xbe4d0d22	-0.20024541
65	0xbe639b66	-0.22227249
66	0x3f26bdf8	0.6513362
67	0xbd0c2d8f	-0.034223136
68	0xbee3b70f	-0.444756
69	0x3f45334c	0.770314
70	0x3e8a5195	0.27015367
71	0xbf71b389	-0.94414574
72	0xbdd0de46	-0.10198645
73	0x3f0db4ca	0.5535399
74	0xbd5cddaf	-0.05392235
75	0x3d2ac04a	0.041687287
76	0xbf1e6b34	-0.6188233
77	0x3df385a0	0.11890721
78	0xbe9963aa	-0.2995885
79	0xbf3e6764	-0.7437651
80	0x3e107141	0.14105703
81	0xbec99751	-0.39373258
82	0xbf045280	-0.51688385
83	0xbe9a1174	-0.3009144
84	0xbef8934e	-0.48549885
85	0xbf162b89	-0.5866018
86	0x3d8cc1c5	0.06872896
87	0xbf1a7c78	-0.60346174
88	0xbf4ed71b	-0.80796975
89	0x3f1d9502	0.6155549
90	0xbed1e081	-0.40991595
91	0xbe9ce2dc	-0.3064183
92	0x3f2e76c9	0.6815
93	0xbf131d7d	-0.5746687
94	0xbf6623a2	-0.8989812
95	0xbe783827	-0.2424017
96	0xbf7689f5	-0.96304256
97	0xbf8daf2d	-1.1069084
98	0xbdf76a95	-0.12080876
99	0x3e5108d0	0.20413518
100	0x3e0b1b58	0.1358465
101	0x3e41602b	0.18884341
102	0xbe414796	-0.18874964
103	0xbddafbd7	-0.10692566
104	0xbe2486a9	-0.16066994
105	0x3e9ce191	0.30640844
106	0x3d9eec4d	0.077599145
107	0x3e6d35e6	0.23165092
108	0x3dca0947	0.09865051
109	0xbe8acda7	-0.27110025
110	0x3e16bc30	0.14720225
111	0x3ecfe10d	0.40601388
112	0xbd9cec9e	-0.07662319
113	0x3f120749	0.57042366
114	0xbd3c4da9	-0.0459725
115	0x3e4cb077	0.19989191
116	0xbe93660d	-0.28788796
117	0xbf05b954	-0.52235913
118	0x3f6e17ee	0.93005264
119	0xbee7f4a1	-0.45303825
120	0x3d7b3e5f	0.06133878
121	0xbe9271ed	-0.28602543
122	0x3f22511f	0.6340503
123	0xbc52056c	-0.0128186755
124	0x3d67974b	0.05654077
125	0xbe35677c	-0.17715257
126	0x3ed06467	0.407016
127	0x3ec5d280	0.3863716
128	0xbe7db4a3	-0.24775939
129	0x3ed2ef4f	0.41198203
130	0x3f1aecb2	0.6051742
131	0xbebd109e	-0.3692674
132	0x3e6e0213	0.23242979
133	0x3e75fd4c	0.24022406
134	0xbf90220b	-1.1260389
135	0xbe1d6da3	-0.15373854
136	0xbc4cf7c4	-0.012510244
137	0xbdb3d756	-0.087813064
138	0xbe3677de	-0.17819163
139	0x3eaaf811	0.33392385
140	0xbf6dddb0	-0.92916393
141	0x3dd9e088	0.10638529
142	0xbd76e543	-0.060277235
143	0xbf0b368e	-0.5438012
144	0xbe6dba6b	-0.23215644
145	0x3f35356f	0.7078466
146	0x3ea58f29	0.32335785
147	0xbeaf2e92	-0.34215218
148	0x3f285f2c	0.6577022
149	0x3e3dc1f0	0.18531013
150	0x3dbb81b5	0.09155599
151	0x3f23fee0	0.64060783
152	0x3e5f2d5e	0.2179465
153	0xbef8a199	-0.4856079
154	0xbef6d6ea	-0.4821084
155	0x3e08462a	0.13308015
156	0x3e7c4971	0.2463739
157	0xbe8fe2c4	-0.28102696
158	0xbe5674b2	-0.20942953
159	0xbecb49b1	-0.3970466
160	0xbe9b76a4	-0.30363953
161	0x3e34a232	0.17639998
162	0xbeb65c0c	-0.356171
163	0x3e9517b4	0.29119647
164	0x3edbc1aa	0.4292119
165	0xbe88ff76	-0.267574
166	0xbdb77767	-0.08958321
167	0xbcc8e8fd	-0.02452516
168	0x3e6f21db	0.23352759
169	0x3f44a316	0.7681135
170	0x3ed5e0ac	0.41772974
171	0xbf25ac8c	-0.6471641
172	0xbea9ff7e	-0.33202738
173	0xbe3fadc7	-0.18718635
174	0xbf3f723a	-0.7478367
175	0x3de2814c	0.11059818
176	0x3f0767f0	0.5289297
177	0xbee509ac	-0.44733942
178	0xbd193c00	-0.037410736
179	0x3ebc11da	0.3673237
180	0xbefc775b	-0.4930981
181	0xbef55299	-0.4791458
182	0x3e6a62ab	0.22889201
183	0xbe98ac39	-0.29818895
184	0xbf033e98	-0.51267385
185	0x3e7cae67	0.24675904
186	0xbb92f040	-0.0044842064
187	0xbef8219b	-0.4846314
188	0x3efdbf38	0.4955995
189	0xbd32847c	-0.04358338
190	0xbf3e32a2	-0.7429601
191	0x3d613a80	0.05498743
192	0x3ea5c153	0.32374057
193	0x3e9e4318	0.30910563
194	0x3f24c52e	0.6436337
195	0x3ecff44d	0.40616074
196	0xbd8ea20c	-0.06964502
197	0xbeaf2ded	-0.34214726
198	0xbe796a1b	-0.24356882
199	0xbe8228a7	-0.2542164
200	0xbef1f85d	-0.472598
201	0xbf25d073	-0.64771193
202	0xbf0b74b9	-0.5447498
203	0xbe12dfe4	-0.1434322
204	0xbf16fd41	-0.58980185
205	0x3f05b4b5	0.5222886
206	0xbeb87567	-0.3602707
207	0x3e3993b9	0.18122758
208	0xbf4efef4	-0.8085778
209	0xbf17805d	-0.5918024
210	0x3e0fd722	0.1404691
211	0xbecb4996	-0.3970458
212	0xbf6d180c	-0.9261482
213	0x3f89413f	1.0723037
214	0xbd5ed09b	-0.05439816
215	0xbf3848fb	-0.7198636
216	0xbf13a7f0	-0.5767813
217	0xbca8b7f3	-0.020595526
218	0x3eed632b	0.46364722
219	0xbf0dd03c	-0.55395865
220	0xbf42fab6	-0.76163805
221	0x3e79db95	0.2440017
222	0xbebe8f7b	-0.37218842
223	0x3f06eb13	0.52702445
224	0x3f395907	0.7240147
225	0x3e082f47	0.13299285
226	0x3e658fdd	0.2241816
227	0x3e609c43	0.21934609
228	0xbf1a215a	-0.6020714
229	0x3d8ed861	0.06974865
230	0x3ea41e4c	0.32054365
231	0x3d5f5a71	0.05452961
232	0x3de18da2	0.110133424
233	0x3e605766	0.2190834
234	0x3e5248ab	0.20535533
235	0xbe617506	-0.22017297
236	0x3dea0782	0.11427213
237	0x3e10353e	0.1408281
238	0x3e530585	0.20607574
239	0x3e2d9e21	0.16954853
240	0x3e31d141	0.1736498
241	0x3e35ae43	0.17742257
242	0xbdee521f	-0.11636757
243	0x3d57a0db	0.052643638
244	0xbed4b1f1	-0.4154201
245	0x3e924359	0.28567007
246	0x3e2bfd19	0.16795768
247	0xbf1b3403	-0.6062624
248	0x3e6c224a	0.23059955
249	0x3f0ee174	0.55812764
250	0xbeaf7e05	-0.34275833
251	0xbf66f5e8	-0.90218973
252	0x3e0d67f6	0.13809189
253	0xbe584347	-0.21119414
254	0x3e9a0a2a	0.3008588
255	0x3d132621	0.035925034

module.up8.up.weight f4 [64, 32, 2, 2]
0	0x3f0b68a4	0.54456544
1	0x3f8ce708	1.1008005
2	0x3e8fe855	0.28106943
3	0x3dffd8c0	0.12492514
4	0xbef513b7	-0.47866604
5	0xbe9ffa97	-0.31245872
6	0xbf085529	-0.53254944
7	0xbe96d509	-0.29459408
8	0xbeb5de27	-0.3552105
9	0x3ea9af4a	0.33141547
10	0xbd8ba269	-0.06818087
11	0x3ed3be62	0.41356188
12	0x3f2b50ed	0.6692036
13	0xbe7c43d1	-0.24635245
14	0x3ed3dd32	0.41379696
15	0x3dadbc9f	0.08483242
16	0x3da9cc49	0.082909174
17	0xbed7e1d9	-0.42164496
18	0x3cf4e353	0.029893553
19	0x3dd4cce7	0.103906445
20	0xbf75bdfa	-0.95993006
21	0xbfb604c8	-1.4220209
22	0xbf4313f7	-0.7620234
23	0xbf917051	-1.1362401
24	0xbda0322c	-0.078220695
25	0xbdc17936	-0.09446947
26	0xbe0ccebf	-0.13750742
27	0xbf03a5f7	-0.5142512
28	0x3f061779	0.52379566
29	0x3f8dc71e	1.1076391
30	0xbe231fea	-0.15930143
31	0x3f01fe02	0.5077821
32	0xbf3a20e6	-0.7270645
33	0xbf49d151	-0.78835016
34	0xbe878e24	-0.26475632
35	0xbe8dc928	-0.27692533
36	0xbda93c4b	-0.08263453
37	0xbc9a6449	-0.018846648
38	0xbe70bcd0	-0.23509526
39	0xbe001b74	-0.12510473
40	0xbc68b9f1	-0.014204488
41	0xbea5873d	-0.3232974
42	0xbd527a4b	-0.05138616
43	0xbe7c4ef4	-0.24639493
44	0x3e459ff5	0.192993
45	0x3e2eb47a	0.17061034
46	0x3ebd9ef3	0.3703533
47	0x3e9aeef3	0.3026043
48	0xbd91cfdb	-0.071197234
49	0xbf255b40	-0.6459236
50	0x3e5a893d	0.21341415
51	0x3deeb38e	0.11655341
52	0xbd1cdb25	-0.03829493
53	0xbeeb0ece	-0.45909733
54	0xbe27bfaf	-0.16381715
55	0xbea98db3	-0.3311592
56	0x3e7eb664	0.24874264
57	0x3f102042	0.5629922
58	0x3dc02857	0.09382694
59	0x3ea582b0	0.3232627
60	0x3d7de468	0.061985403
61	0x3ed411cb	0.41419825
62	0x3cb1d990	0.021710187
63	0x3ea07607	0.31340048
64	0x3f56eba2	0.839533
65	0xbd0916a5	-0.03346886
66	0x3e95d9f0	0.29267836
67	0xbebe6983	-0.37189874
68	0x3e26ce89	0.16289724
69	0x3d752fe8	0.05986014
70	0xbe349590	-0.17635179
71	0xbdccfa81	-0.10008717
72	0xbea7b984	-0.32758725
73	0xbe9b2bff	-0.30307004
74	0xbe878f73	-0.2647663
75	0xbdfbacea	-0.1228884
76	0x3ced9893	0.029003417
77	0xbe787017	-0.24261509
78	0xbcb1335a	-0.021630932
79	0x3d9e0033	0.07714882
80	0x3ea6b6fb	0.32561478
81	0x3e6121b2	0.2198551
82	0x3d9a168c	0.07523832
83	0x3e256491	0.16151644
84	0x3f0ac483	0.54206103
85	0x3f5a639a	0.8530823
86	0x3f7cbaea	0.9872271
87	0x3f71f168	0.9450898
88	0xbf0148ff	-0.5050201
89	0xbf0bdf00	-0.54637146
90	0xbe359219	-0.17731513
91	0xbdc48bd1	-0.0959698
92	0xbeccfbe8	-0.4003594
93	0x3e882198	0.2658813
94	0xbe198b33	-0.14994507
95	0x3d882ebb	0.06649538
96	0x3efe2969	0.49640968
97	0x3ebd147d	0.36929694
98	0x3e1bf604	0.15230566
99	0x3ed7258c	0.42020833
100	0x3e8975dd	0.26847735
101	0x3eba98f3	0.36444816
102	0x3e723e09	0.23656477
103	0x3e7a3667	0.24434815
104	0xbe7ced11	-0.24699809
105	0xbeaa2ee7	-0.3323891
106	0xbddc55c4	-0.10758546
107	0xbf3f397b	-0.74697083
108	0x3dc50260	0.096195936
109	0xbd95c175	-0.073122896
110	0x3f44ea59	0.76920086
111	0x3d06883f	0.03284478
112	0xbf02dcea	-0.5111834
113	0xbd96db4e	-0.07366048
114	0x3e3307fe	0.17483518
115	0x3f1c70cd	0.6110962
116	0x3e580aa0	0.21097803
117	0x3e8b2e96	0.2718398
118	0xbe00d671	-0.12581803
119	0xbd961099	-0.073273845
120	0x3d250061	0.040283564
121	0x3f081881	0.5316239
122	0x3d9abfeb	0.07556137
123	0x3ecd15f7	0.4005582
124	0x3ea2cc0f	0.3179631
125	0xbea3fac9	-0.3202727
126	0xbefcbaac	-0.4936117
127	0xbea36f06	-0.31920642
128	0x3da51bc4	0.080619365
129	0x3d7305ed	0.059331823
130	0xbc860918	-0.016361758
131	0x3d0c8050	0.034302056
132	0xbdbf372c	-0.09336695
133	0xbdc34983	-0.095355056
134	0x3d3beabb	0.045878153
135	0xbce63b97	-0.028104587
136	0xbd4f47a4	-0.05060543
137	0xbc122657	-0.008920274
138	0xbc6ea206	-0.014564997
139	0x3d3fe17e	0.046845905
140	0x3c8055e0	0.015665948
141	0xbd8a8b37	-0.067648344
142	0x3cbfa83d	0.023395652
143	0x3d3942f1	0.045229856
144	0xbcb144c1	-0.02163923
145	0x3cf91aea	0.030408341
146	0x3ba84a87	0.0051358375
147	0xbd530546	-0.0515187
148	0x3d749335	0.0597107
149	0xbb8f975a	-0.004382056
150	0x3d5e2887	0.05423787
151	0x3d525f06	0.051360153
152	0x3ce4a718	0.027911708
153	0x3d718b95	0.058971006
154	0x3d10d3a9	0.035358105
155	0xbc332958	-0.01093515
156	0xbd1b2464	-0.0378765
157	0x3dabaeff	0.08382987
158	0xbd4c8e13	-0.04994018
159	0xbd44de35	-0.048063476
160	0x3ccf088e	0.025272634
161	0x3ac99aef	0.0015381257
162	0xbd0453df	-0.03230655
163	0x3d81d764	0.063399106
164	0xbce99443	-0.02851308
165	0xbd3f3863	-0.046684634
166	0xbd80b037	-0.0628361
167	0x3c07482f	0.008256956
168	0xbd6e1db0	-0.05813378
169	0x3babc314	0.005241761
170	0x3d6607f9	0.056159947
171	0x3d21f6d7	0.039542045
172	0xbd3e01ed	-0.046388555
173	0xbd30ca9d	-0.043161977
174	0x3db58ba3	0.08864524
175	0x3c95643f	0.018236278
176	0x3c536ab9	0.012903863
177	0xbd216638	-0.039404124
178	0xbd74e61d	-0.059789766
179	0xbd7e88e2	-0.06214226
180	0x3c172087	0.009224064
181	0x3d31f89e	0.04344999
182	0xbda8ff75	-0.082518496
183	0xbc99401b	-0.018707326
184	0x3c963765	0.018336961
185	0x3d9914fe	0.07474707
186	0x3ca16f74	0.019706465
187	0x3cc80f18	0.02442126
188	0x3ddf2e56	0.1089751
189	0xbc770add	-0.015078274
190	0x3ddede4b	0.10882243
191	0xbd71cead	-0.059034992
192	0xbd8b1770	-0.0679158
193	0xbd3b0136	-0.04565545
194	0x3d7b62c3	0.061373483
195	0xbd428317	-0.0474883
196	0xbdbca60f	-0.09211361
197	0x3d2e2fb9	0.04252598
198	0xbdb3e31b	-0.08783551
199	0x3d58c44c	0.05292158
200	0xbca8eb5a	-0.020620037
201	0x3d917553	0.07102456
202	0xbcebe93a	-0.028797735
203	0xbcef876b	-0.029239377
204	0x3d73152e	0.05934637
205	0xbd861c35	-0.06548349
206	0xbd852098	-0.065003574
207	0x3d56a606	0.052404426
208	0x3d5e6594	0.05429609
209	0x3d4c31da	0.04985223
210	0x3cf52756	0.029925983
211	0x3d03253e	0.03201794
212	0xbd633c3d	-0.05547737
213	0xbd16b899	-0.03679714
214	0xbcba1563	-0.022715276
215	0xba562e99	-0.0008170396
216	0x3cedc225	0.02902324
217	0xbcd44292	-0.02591065
218	0x3d42da08	0.047571212
219	0xbdf22d4d	-0.11825047
220	0xbce0b0cf	-0.027428059
221	0xbc7fc14c	-0.01561005
222	0xbda51e7b	-0.08062454
223	0xbda364ed	-0.079782344
224	0xbd49fdb2	-0.04931421
225	0x3d6fa861	0.058510188
226	0x3cebbc5d	0.028776342
227	0x3d0f578c	0.0349956
228	0xbcbd08d5	-0.0230755
229	0xbcd96bf5	-0.026540736
230	0xbd3adcf5	-0.045620877
231	0x3baeca3c	0.005334167
232	0x3d5fc555	0.05463155
233	0xbc5c9e81	-0.013465525
234	0x3d9632f9	0.07333941
235	0xbd28582f	-0.041099723
236	0x3cd18b99	0.02557926
237	0xbd936154	-0.07196298
238	0xbdd7cf08	-0.10537535
239	0xbd07b79b	-0.033134084
240	0x3d9f8428	0.07788879
241	0xbd7d859b	-0.061894994
242	0x3cae42e1	0.021272125
243	0x3d3514ae	0.044209175
244	0xbd8044a5	-0.06263093
245	0x3b3cc969	0.0028806573
246	0xbc4c1ca5	-0.012458001
247	0xbd2093d7	-0.03920349
248	0xbd260dce	-0.04054051
249	0xbd9759f1	-0.07390202
250	0xbddfb8b1	-0.10923899
251	0xbbb2c262	-0.005455301
252	0x3da8c517	0.08240717
253	0x3db92662	0.09040524
254	0x3db943c4	0.090461284
255	0x3ca7c75b	0.020480802

module.up8.up.bias f4 [32]
0	0x3c912fdd	0.017723018
1	0x3c189039	0.009311729
2	0x3d3bd1df	0.045854446
3	0x3aced887	0.0015781083
4	0x3dbd84a4	0.09253815
5	0xbd4bf44e	-0.049793534
6	0xbcad7e0b	-0.021178266
7	0x3cb2d1f6	0.021828633
8	0xbcb5bca3	-0.022184676
9	0xbb7b328b	-0.0038329687
10	0x3dc9a72a	0.09846337
11	0x3c9122a7	0.017716719
12	0x3ca68dc9	0.02033128
13	0xbbbc09c0	-0.005738467
14	0xbb16556f	-0.0022939106
15	0xbdb0a6dc	-0.08625576
16	0x3d2c5f3d	0.042083014
17	0xbcf2de19	-0.02964692
18	0xbdcb929b	-0.09940072
19	0x3c1e6a37	0.009668878
20	0xbd92f6d7	-0.07175987
21	0x3da8a7b3	0.08235111
22	0xbcbe40e6	-0.023224305
23	0xbc08ec77	-0.008357159
24	0xbd06c2fd	-0.0329008
25	0x3c19db91	0.009390728
26	0xbda073dd	-0.07834599
27	0x3c9e20bc	0.019302718
28	0x3cdac1aa	0.026703674
29	0xbb6a011b	-0.0035706225
30	0x3dae026d	0.084965564
31	0xbcfbbb93	-0.03072909

module.up8.conv.conv.0.bias f4 [32]
0	0x3e798927	0.24368726
1	0x3e2d3d92	0.16918018
2	0x3d600bf0	0.054698884
3	0x3d1a3142	0.037644632
4	0xbdd438c4	-0.1036239
5	0xbde6d398	-0.11270827
6	0x3e3560cc	0.17712706
7	0xbe59b523	-0.21260504
8	0x3e276565	0.16347273
9	0xbe663d16	-0.2248424
10	0x3e398b8a	0.18119636
11	0x3e0653e5	0.1311794
12	0x3db87c18	0.09008044
13	0x3ec96ee2	0.3934241
14	0x3eb6d7ed	0.35711613
15	0x3e547c20	0.20750475
16	0x3e2903f4	0.16505414
17	0x3e3631d1	0.17792441
18	0xbeac243d	-0.33621398
19	0xbe38f641	-0.18062688
20	0x3eddb92d	0.4330534
21	0x3db485a1	0.0881455
22	0x3e02f564	0.12788922
23	0x3e49715d	0.19672151
24	0x3e0a71e2	0.13520005
25	0x3e0ffdb3	0.14061622
26	0x3e080e40	0.13286686
27	0xbdf8efd4	-0.121551186
28	0x3e2a9d5d	0.16661592
29	0x3f416744	0.75548196
30	0x3e66f110	0.22552896
31	0x3e3d6c4f	0.18498348

module.up8.conv.conv.0.weight_g f4 [32, 1, 1, 1]
0	0x3fd4ddf3	1.6630234
1	0x3f03c5f4	0.5147393
2	0x3ff54f80	1.9164886
3	0x4085ca8d	4.1809754
4	0x407d32b8	3.9562206
5	0x3fc58568	1.5431337
6	0x3eee8813	0.4658819
7	0x4004fe68	2.0780277
8	0x3f8aa889	1.0832683
9	0x3fa19a34	1.2625184
10	0x40a9c5fb	5.3054175
11	0x4019b585	2.401704
12	0x4039f7bd	2.9057457
13	0x403b2f23	2.924752
14	0x404e4cd6	3.2234397
15	0x3f0a5e5a	0.5405022
16	0x3fc177fe	1.5114744
17	0x3f01cb09	0.5070043
18	0x3fc34108	1.5254221
19	0x40035f89	2.052706
20	0x3f91abae	1.1380517
21	0x400e4494	2.2229357
22	0x3ef02dce	0.46909946
23	0x3fdbf2cc	1.7183471
24	0x3fb92ebb	1.4467386
25	0x3fbc1563	1.4694027
26	0x3feb1fd2	1.8369086
27	0x3fe2ff67	1.7734193
28	0x4080d987	4.0265536
29	0x3f82a752	1.0207312
30	0x3ef2996a	0.4738267
31	0x3f6076b2	0.87681115
